simulator/actor_iter1143.pt (torch, 908082 bytes, 17 tensors)

weight_ih f4 [512, 49]
00000000: c3ca 2f3d a087 f63d a84e f5bd 01bc 17bd
00000010: f213 b4bd 4d89 f03b d6e5 223c fa68 933c
00000020: cb81 893c 32b1 933b af38 f6bc b83b f9bc
00000030: d862 e0bd ec0b b8bc 86ec e1bc 88a3 debb
00000040: 5bb1 b43d 024e 913d 4507 f3bd 4960 b33b
00000050: 3783 66bd 0eda 9f3d fa3c f6bc 58e0 b73d
00000060: 744e 93bd e7cb e9bb 2289 653d 2032 7ebd
00000070: 2db1 ffbd c342 92bd 2ce7 aabd 37d4 653d
00000080: 09a9 adbc d259 1c3c 0e07 c3bd ef2f ddbd
00000090: c669 90bd 11c1 173d 2f63 4b3b a9f1 533d
000000a0: 6fc0 253c b170 a7bd b6f4 9e3c ea45 91bd
000000b0: 0051 babd 980b cebc 8ca1 913d 6ff6 453d
000000c0: a058 bfbc 854d b83c d88c ba3d 03f4 ef3d
000000d0: ae53 8d3d 65be a4bc 7cd9 0a3e ec0f 22bd
000000e0: 3a4a 333b 8ed3 35bd 07dd 1ebd 4975 05bd
000000f0: 0666 873c 18a3 543d 2a94 16bd 9f11 783c
00000100: 95af ffba d698 e6bc 91ac 5a3d 1bc2 103c
00000110: a2ec a23d 4acb 903d 494d f1bd f39e c2bd
00000120: 9433 063c be50 1f3d d0dd fd3d 72b7 c93d
00000130: 79e0 e13c 1e02 f9bd 70cb d8bc 63af 5b3c
00000140: 2aad 8fbd 7c79 263e b122 f23d 0de9 d6bd
00000150: 7852 fdbb ffa5 f73b 2619 57bd db40 50bd
00000160: db7c b73c cde2 39bd 62f2 3c3c 9098 d43d
00000170: a00e 9b3d 6baf 3b3b 0b56 f2bd f655 a8bd
00000180: 7f5a a23d d7bf 2b3d 29f1 32bb 93a4 803c
00000190: e2c3 7b3d 2dc3 053e 7a15 e1bd 64dd 6dbd
000001a0: 00bd 46bd 0b94 c4bd 9fec a53c 8217 a3bb
000001b0: 8f47 4d3c e53f 183c 1aed 7fbd fe37 f33d
000001c0: 2e3e 833c 1d86 ed3d 80ca b43d 1905 aebd
000001d0: 030c bc3c d7ad e73d e969 32bd c042 873d
000001e0: eb98 793d b4f4 ec3a 3733 d4bd 298e 923c
000001f0: fe66 cabd d65c c5bd 4339 16bd 7102 d2bd
00000200: f4c4 81bd fe73 17bd 5e2d a9bc 0afe 4a3d
00000210: abaf 17be 25d3 a8bd eb85 013e df3d fabb
00000220: f4bd 98bd 579f 7e3d a1f6 6b3d a8c5 55bc
00000230: 9292 f23d 0c37 a13d 750d 113d c876 2b3d
00000240: 8304 14be c560 42bd 0f9a 503d 4ee8 553d
00000250: 18cf a2bb 0013 92bd e985 a1bd 3617 d7bd
00000260: 78e2 5a3c e9e2 273d 42fd b63c 9f05 b3bd
00000270: 6112 4c3d 2792 d7bd b08f 06bd c2e3 a7bd
00000280: 92c5 84bb 7874 43bd c3e5 d6bd 3663 343d
00000290: 90d5 223d 0e3e 66bd f79c aa3c 00f7 60bd
000002a0: 3040 ffbd ab14 d6bc f804 893d defb f5bc
000002b0: 8d7f 2c3e 90d1 683d af05 edbd 6e3d 683d
000002c0: ef1e 01bc 5b01 6f3d d9c7 0b3d 0155 54bd
000002d0: 9816 403d 6ac6 8abd afaf 8c3d fce8 9e3c
000002e0: 9dad 04bd 214c e53c 976a 53bd 9c5a 333d
000002f0: d6aa 0bbe a554 bc3d 5064 213e cba6 803a
00000300: 0ad4 bebd e470 473c a2a3 a1bc 8546 73bd
00000310: b32e 23bd 880b 063d f887 133d cc1c 953d
00000320: bf82 293d b889 9d3d 40f6 5dbd d074 5dbd
00000330: 2cd6 44bd e1d3 bb3d b3da 753c f74d d13d
00000340: 4690 3f3d c00a 54bb 46fa 4b3d 49d3 f13c
00000350: 8421 21bd 2ccc 06bc f7a8 d73d 68da c13d
00000360: c0a9 b63c 113f d7bc 47e7 0c3e ee41 40bd
00000370: 5f7f 05bd 7570 003e b422 b43d 9483 0dbc
00000380: 106f ddbd f7fd 883c 9d7d ddbc d5a7 6e3e
00000390: 5685 c8bd b1d8 cdbc 2bf5 93bc 915b 9b3d
000003a0: ea38 273d 6e23 373d e9df a23d f206 b2bb
000003b0: 35a8 823d 6e6d 80bd 6146 283c ba7d 953d
000003c0: c309 4b3d 4b90 ff3d 2a8a bbbc 3db2 a2bb
000003d0: ef74 d63c 821c 86bd c184 e83d c9bc c1bd
000003e0: 2913 163d 7b33 8bbc c4eb 84bd a2b7 3dbd
000003f0: 9de1 313d d5fa 7d3b bb34 1cbc a35e 1ebd
0.042917978 0.12037587 -0.11977893 -0.03704453 -0.08792867 0.0073405863 0.0099424925 0.017994393
0.016785523 0.0045072073 -0.030056326 -0.030423984 -0.10956353 -0.022466622 -0.027578603 -0.006794397
0.0882289 0.07094957 -0.11866621 0.0054741246 -0.05627748 0.078052625 -0.030058373 0.08978337
-0.07192698 -0.0071349028 0.056038983 -0.06205952 -0.124849655 -0.0714164 -0.08344874 0.056110587
-0.021198766 0.009542899 -0.0952283 -0.10800158 -0.07051425 0.037049357 0.003103446 0.051744137
0.0101166805 -0.08175791 0.019403797 -0.07093413 -0.09097481 -0.025152013 0.07110891 0.04833072
-0.02335769 0.022497902 0.09108895 0.117164634 0.06900726 -0.020110318 0.13559526 -0.039565966
0.0027357475 -0.044391207 -0.038785007 -0.032582555 0.01652814 0.05191335 -0.036762394 0.01514092
-0.0019507284 -0.02814905 0.05338723 0.008835341 0.079552904 0.07070024 -0.11782319 -0.095029734
0.008191008 0.03889536 0.12395823 0.098494425 0.027572857 -0.12158607 -0.026464194 0.013408515
-0.0701545 0.1625728 0.11823023 -0.1049367 -0.0077307783 0.00755763 -0.052514218 -0.0508431
0.022398403 -0.04538231 0.011532398 0.103806615 0.07571149 0.0028638493 -0.11832818 -0.08219521
0.07927417 0.041931 -0.0027304387 0.015703475 0.061466105 0.13062735 -0.109904245 -0.058072463
-0.04852009 -0.095985495 0.020254431 -0.0049771676 0.012529268 0.009292577 -0.062481977 0.11875914
0.01602086 0.11597846 0.08827686 -0.08497066 0.022954946 0.11312454 -0.043558035 0.066045284
0.06093685 0.0018078298 -0.10361331 0.017890053 -0.098829255 -0.09636848 -0.036675703 -0.10254372
-0.06336394 -0.036975853 -0.020651516 0.049558677 -0.14813106 -0.082433976 0.12648742 -0.00763677
-0.07458106 0.062163677 0.05760825 -0.013047613 0.11844362 0.078718275 0.035413224 0.041861326
-0.14454846 -0.047455568 0.05092817 0.052223496 -0.004968535 -0.0713253 -0.078868695 -0.10502474
0.013359658 0.040987883 0.02233756 -0.087413065 0.049822215 -0.10525923 -0.032851875 -0.08197738
-0.0040518725 -0.047718495 -0.10493042 0.044039927 0.03975445 -0.056211524 0.0208268 -0.054923058
-0.12463415 -0.026132902 0.06690401 -0.030027326 0.16845532 0.05684048 -0.1157335 0.05669921
-0.00788091 0.058350902 0.034126136 -0.05183888 0.046896547 -0.06776126 0.068694465 0.019398205
-0.032392133 0.027990403 -0.051615324 0.043787584 -0.13639387 0.09195832 0.15760922 0.0009815333
-0.09317787 0.012172911 -0.019731347 -0.059393425 -0.039839458 0.03272584 0.03601834 0.07280883
0.041384455 0.076922834 -0.05418992 -0.05406648 -0.048055813 0.09171272 0.015005755 0.10219949
0.04676845 -0.003235504 0.049799226 0.029519694 -0.039338604 -0.008227389 0.10530274 0.09465486
0.02229774 -0.02627519 0.137601 -0.046937875 -0.032592174 0.12542899 0.087956816 -0.008637328
-0.10812199 0.016722662 -0.027037436 0.2330621 -0.09791057 -0.02512774 -0.018061241 0.07585824
0.04082576 0.044711523 0.07952864 -0.005432957 0.06379739 -0.06270872 0.010270686 0.07299371
0.049569856 0.124786936 -0.02289303 -0.0049650953 0.026178805 -0.06548406 0.11353446 -0.09459836
0.036639366 -0.016992321 -0.06490281 -0.046317704 0.043428052 0.0038754244 -0.009534056 -0.03866447

weight_hh f4 [512, 128]
00000000: 5e01 b33d 0212 d4bc d7bf 343d cf1e 3d3d
00000010: 30b9 2e3c f25b 0cbd b890 2e3c ec00 af3d
00000020: 714b 04be 3c88 f6b6 c718 f33d 9ab3 d1bd
00000030: d3b5 7d3d 5075 8fbd 9dcf 8f3d e476 06bd
00000040: 5d4c 20bd f6bf 403c 78ef 113c c77b 053c
00000050: 5533 a13d 24d6 a53b 1ad1 123e 967e 323c
00000060: 1d7b 23be 1ada 873d e19f 8b3d cc35 a03d
00000070: 1eee 5ebc 72bb cb3c 24af b13d 864b 003d
00000080: 2ea7 d83c bd4b 18bd ec37 a63d d4d9 0e3d
00000090: 2079 18bd a30a 18bd 8b85 623d e1b1 c83d
000000a0: 7311 c7bb 44f6 76bd e619 f2bc 1fca 24bd
000000b0: 97a5 d3bc 4d10 863d 0654 cc3c 951c 57bd
000000c0: db22 42bd 5a3e e8bd dd7e bdbc 7aee 233d
000000d0: 3598 9e3a edb8 2bbd 45af 57bb 35ab c2bb
000000e0: cc1b d3bd 04a2 38ba bbc9 76bd fddf 9fbd
000000f0: 04af 963d fab0 a8bd f82c 8bbd 3543 fcbb
00000100: aa47 46bd 7b41 5d3d 3169 8e3b c0b6 3dbc
00000110: 7739 03bd d637 c33a f580 b3bd 27ef 413d
00000120: 0ad7 333d 087f ec3c d62e 3fbd fcab a83b
00000130: 32cb 47bd 9c4d 463c ccd3 4ebd bffd 48bb
00000140: ae11 7e3d 8cf3 66bb fa79 3a3d ecf9 b13c
00000150: c8c8 e43d b5ee 8ebd 517f 563c 7ef1 553c
00000160: 4216 983c 7049 8bbc 490f 4fbd 16e3 6b3c
00000170: b7ff b53d 0c5f aebd 40f8 72bd 2d53 e7bc
00000180: 9768 8a3d 9cec 1a3b 5821 883b 0488 60bd
00000190: 87a0 2f3d 0b7e 5c3d aa47 b9bc 9137 003c
000001a0: 4478 d1bd af0d 9fbc 6475 b6bd 9b79 1c3c
000001b0: e444 24bd c3d2 683b 0b62 b5bc 01d3 2abd
000001c0: ca87 cebc 5d78 24bd 2279 523d 2629 84bd
000001d0: 5569 c3bb 5b4a 42bd 0de7 82bd 7296 8dbd
000001e0: 70a1 35bd 1256 98bd bfd1 dd3d 34af c83d
000001f0: e40c a2bd ae1f 163d 26d4 2c3d 5b39 c13d
00000200: 50e1 88bd 2945 e23c 3d1a 943d 7eea d9bd
00000210: dfd1 d33d dfcd 68bd 5008 2c3d 81e9 dbbb
00000220: f1ea 8bbd 85a2 443d 5b76 323d 46e0 773d
00000230: babb 353c 484c 323c fdb9 ab3b 4b2e dc3d
00000240: d94b 593d 8add c2bd ebf5 7d3c 86ee 31bc
00000250: 6a64 aabd b702 01bb 6c65 aa3d 59c4 babd
00000260: eadd c5bc 9119 603d ce4b 2c3d 3141 ddba
00000270: ea5e 61bd 6c56 17bd 1a8e e93c b36a a3bd
00000280: 71fa df3c 5b82 9fbc a4ed ba3d a924 82bd
00000290: 89a6 7cbc ed06 0e3d fcc8 3ebd f88f 1d3d
000002a0: 79a4 9bbc 44aa f5bc 3327 1c3d 5fef db3b
000002b0: 6ae2 d4bc 81d2 b2bc 4eef 403d 38e6 043d
000002c0: f7ee 373d b3e7 9fbd 9f51 47bd 04f5 dabd
000002d0: c619 983d eef3 ac3c 482a d13c ebe7 6ebd
000002e0: 2974 a6bd e203 09bd 4f72 8e3d 3c28 813d
000002f0: d965 44bd 5def ccbc bee1 96bd 40aa eabd
00000300: ba44 b8bc b504 bb3d 01b3 f7bc eef4 c6bc
00000310: 5bc5 2c3d cf8c 9f3c 489c a6b8 e818 303d
00000320: 09f4 aebb ec47 ff3a 7158 39bc d33d 783d
00000330: f78a 443d e999 b3bd 392b e7bb 28bf e9bc
00000340: 2807 033d 4fc9 c7bc de93 df3d 5aed b5bc
00000350: 9c17 cf3d f18b 86bd 3f69 953c 7dd7 9c3d
00000360: 51d7 8a3d cb47 62bc b53b c5bd 7a3d 563d
00000370: 5fe2 89bd ebdf 85bd 25ab 7fbd 9288 2039
00000380: c504 cdbc 9ce2 2ebd 9ed5 a4bd c0ad 463d
00000390: 91c0 743d 7467 86bd 5930 083d d071 1bbe
000003a0: aba7 40bd 9025 263c 5ab1 ae3d 9ee3 c0bc
000003b0: 02fe 3ebd 44c3 533d 021b 84bd 201a 34bd
000003c0: cf6d edbb 2089 c2bd 2d5a e5bc 41e7 1abd
000003d0: aed9 6ebd c0d6 833b 1e1e 853a 4fbe 29bc
000003e0: cfd3 033d 94ee ddbd 042d 9abc 1d95 443d
000003f0: 6709 bbbd 7167 463d d769 b9bd cbae 973d
0.08740495 -0.025887493 0.044128265 0.04617196 0.010664269 -0.034267373 0.010654621 0.08545098
-0.12919404 -7.347231e-06 0.1186996 -0.102393344 0.06194098 -0.070047975 0.07022021 -0.032828227
-0.039135326 0.011764517 0.008907191 0.008147187 0.07871119 0.005060928 0.14337578 0.010894438
-0.15964933 0.066333964 0.06817604 0.07822761 -0.013606576 0.024869654 0.086759835 0.031322025
0.026446905 -0.037181605 0.08116135 0.034875706 -0.03722489 -0.03711952 0.055303138 0.09799553
-0.006075078 -0.06029345 -0.029553365 -0.04023182 -0.025835795 0.06546078 0.02494241 -0.052517492
-0.047396522 -0.113400176 -0.023131782 0.04002235 0.0012099805 -0.041924406 -0.0032910865 -0.0059408196
-0.10308036 -0.0007043185 -0.06025098 -0.07806394 0.073576 -0.082368806 -0.067956865 -0.0076984414
-0.048408188 0.054017525 0.004346036 -0.0115792155 -0.032037225 0.001489396 -0.08764831 0.047347214
0.04390625 0.028869167 -0.046675526 0.0051474553 -0.048777767 0.012103464 -0.050494954 -0.0030668823
0.06202858 -0.003524038 0.045526482 0.021725617 0.111711085 -0.069791235 0.013091878 0.0130580645
0.0185653 -0.017002791 -0.050551686 0.014397403 0.08886664 -0.085142225 -0.05931878 -0.028237903
0.0675823 0.0023639565 0.0041543655 -0.054817215 0.0428777 0.05383114 -0.02261718 0.007825748
-0.10228017 -0.019415705 -0.08909109 0.009550477 -0.04010476 0.0035526014 -0.022141477 -0.041705135
-0.025211234 -0.04015385 0.051385053 -0.06453161 -0.0059634843 -0.047434192 -0.06391726 -0.06913461
-0.044343412 -0.074382916 0.108310215 0.09799042 -0.07912615 0.036651306 0.042194508 0.09434768
-0.066836 0.027620869 0.07231567 -0.10640429 0.10342764 -0.05683696 0.042000115 -0.0067111854
-0.06831921 0.048006553 0.043569904 0.06051662 0.011092121 0.010882445 0.0052406774 0.10751017
0.05305085 -0.095149115 0.015500526 -0.010860091 -0.08319934 -0.0019685456 0.08320126 -0.091194816
-0.024153668 0.054711882 0.04206448 -0.001688039 -0.055022158 -0.036947653 0.028510142 -0.07979336
0.0273411 -0.019471338 0.091273576 -0.063546486 -0.015420564 0.034674574 -0.046578392 0.038467377
-0.018999325 -0.029988416 0.03812332 0.006711885 -0.025986869 -0.021828892 0.04710322 0.032446116
0.04490563 -0.07807865 -0.048661824 -0.10691264 0.07426791 0.021112408 0.025532857 -0.058326643
-0.081276245 -0.03345097 0.069553964 0.06306502 -0.047948692 -0.025016481 -0.07367276 -0.11458254
-0.022493709 0.09131757 -0.030236723 -0.024286713 0.0421804 0.019476322 -7.9446065e-05 0.042992502
-0.00533915 0.001947639 -0.01131259 0.060605835 0.04798409 -0.087695904 -0.007054713 -0.028533533
0.031989247 -0.024387984 0.10916875 -0.022207905 0.10111925 -0.065696605 0.018238662 0.07658289
0.067793496 -0.013811062 -0.09630529 0.052304722 -0.0673263 -0.065368496 -0.062419076 0.00015309665
-0.025026688 -0.04269658 -0.08048557 0.048505545 0.059753958 -0.06562701 0.033249233 -0.15180135
-0.0470349 0.010140792 0.08529921 -0.023546036 -0.04662896 0.05169989 -0.06450464 -0.043970227
-0.007245756 -0.09498811 -0.0279971 -0.037818197 -0.058313064 0.004023403 0.001015607 -0.0103603145
0.03218442 -0.10836521 -0.018820293 0.047993768 -0.09132653 0.048438493 -0.090533905 0.07406386

bias_ih f4 [512]
00000000: 0e3e 273d 713f 753c 54e3 143e ee80 973b
00000010: 8890 bb3c 31cd f83c 0ed0 4d3d 733e 9a3d
00000020: ac7d 94bc 9870 583d 8fdf 1e3e e733 e93d
00000030: f165 8c3c 332a 923d 3a7e aa3d 8988 0f3d
00000040: ec0b 81bc dc82 953d 0ebc 09bb e819 e83d
00000050: 5425 cb3d 14b8 b13d aa50 2c3e bd22 b13d
00000060: ad7c 9a3d c703 e33d 2aea 81bd a0e0 d4bc
00000070: 9d95 9c3d ed32 0b3e 38bf 5f3d 6c2d 7c3c
00000080: 3215 123e ae5b 503d 3c3f f8bc dc27 8b3d
00000090: d72d 99bd 4773 bf3d cfa4 ad3d 00ee f8bc
000000a0: a3cb cd3d 84cb 3fbd ca3e a63d 9be7 673c
000000b0: 418c cf3d 5a75 813d a8dc ae3d 1069 e4bc
000000c0: b0c0 053c 3be7 b53d cfa3 eb3d da11 003c
000000d0: 7b07 af3d a054 45bd a636 473d 574f e93d
000000e0: 635c 193e 06f9 9b3d 5caf f73d 9fba 713d
000000f0: f51e 143e 73fc 8d3d f975 a6bc 063b 033e
00000100: 3184 ca3c 55c3 373d f1c6 823a 2732 053c
00000110: 5841 c43d 4d8b 9a3d ee84 bc3d a74b 053e
00000120: 3972 983d 24ec 883d c51f 77bc 1c6b b53c
00000130: 326f 8c3d 6b43 ab3d 6d20 e63d 0f57 1cbd
00000140: c49d 033e 71d8 513c db60 563e 2d35 973d
00000150: 6832 c43d 4364 093e 9234 5a3d d2ad 303d
00000160: d2ee f1bc c43c 053d a0de f73d 59c8 c33d
00000170: 280d 763d 4353 abbc 9a69 4a3d 9238 79bd
00000180: b163 c43d eb20 0fbd d5e5 5c3d be11 a23d
00000190: bfcb 353c abaf 833d f1b4 26bb 8b54 743d
000001a0: 14e2 c33d 6b1d 99bb 4777 b4bc 3683 13bd
000001b0: 3cec 23bd 0bb5 983d 07b1 763d 0311 bb3c
000001c0: b538 d13c 8f1f d7bc b691 84bc 5653 123e
000001d0: ff9a 0dbd b3f8 4d3d f2f6 b13d 297f 6f3c
000001e0: f3ff 743d 3dc6 60bd c8b7 e33d 7b2b 2e3d
000001f0: 8ce4 af3d 8d12 16bb d15a 093e 3633 4a3d
00000200: 5d73 0bbd 43a2 1fbc 8334 633c f4e6 31bd
00000210: d7fe 173c d3b8 4c3d 1e3b e43c 5a95 763d
00000220: 86a4 bd3d 6670 57bc b6b2 753d 3561 6a3d
00000230: ba3d c83c 784c 59bb e426 00bd 571c 30bd
00000240: 91bb 913d 2533 983d 8e5f 983d fd05 bb3d
00000250: 2789 4b3d 4c19 f23c 345a c1bd 516b e4bc
00000260: 3d65 c53d 1f07 a73c 0258 803b ec83 393b
00000270: 06a6 debc c5bc cc3d 0a5b 04bd 0164 4e3c
00000280: 8b2c 42bd 761b 823d 95dc 543d 3260 2f3d
00000290: f058 5b3d c292 86bd 2994 253b 9aba e53d
000002a0: 7bf0 c83d 17d3 9d3d 6313 7fbd 74c5 9a3d
000002b0: 23ed 703d 130c 09bd 1711 423d 4188 0f3d
000002c0: 1206 32bd 6a87 153d e95c dabc 5e9f 283c
000002d0: 5429 48bc ec17 ac3d 4ea1 63bd b9d0 c53c
000002e0: 2c25 a3bd e6a5 dd3d e59f b53c d701 18bc
000002f0: 7ce1 663d a840 25bd 871d 90bc d422 3f3d
00000300: 987f 24b8 1fa7 b43d 9d51 8b3c c3ad d43d
00000310: 71ce 333c 1e9c ba3d b01c 63bd 06f2 be3c
00000320: 4ff4 1ebd b491 f4bc 3801 58bd 3ef0 02bd
00000330: 8a89 04bd da8f aa3d 53bd 59bd fe01 96bc
00000340: dbfa d0bc b2a2 60ba d7db 553d 1cad c23b
00000350: 9b5f 5b3d 8414 3f3d 38df 38bd 7ca9 043d
00000360: ee26 23bd 870b c73d 968e da3c 208b b23d
00000370: 512e b03d 8f64 793d 8621 c83d d366 313d
00000380: c1b2 523d 4ae9 303d 2069 05bc 774b a23d
00000390: 3cf6 4cba 7ed0 f03c 87aa 253d f8d8 303a
000003a0: 3fe2 a03d 57c3 b13d 50fc c73d 3be2 07bb
000003b0: 44ce a93d 9b2d 22bd adc2 a83c ee77 1fbd
000003c0: 1eee 53bd 46cb fbbc 0f38 abbd 9cfa 943d
000003d0: 5fab 993d 0d20 1a3d 897f 663c 82d3 3d3c
000003e0: b32c 943c eea2 883d 2f84 573d dd22 96bd
000003f0: e3a9 123d cc4c 883c fc4b 983d ae01 75bd
0.040830664 0.014968739 0.14539844 0.004623524 0.022896066 0.03037128 0.050247245 0.075314425
-0.018126331 0.052841753 0.15514968 0.11386853 0.017138453 0.07136955 0.08324857 0.03504232
-0.015752755 0.0730035 -0.002101663 0.11333066 0.09919229 0.08677688 0.16827646 0.08649204
0.07543311 0.11084705 -0.063434914 -0.025986016 0.07645724 0.13593645 0.05462572 0.015391689
0.14265898 0.050868683 -0.03030359 0.06794712 -0.074794464 0.09348159 0.084787 -0.030386925
0.10048606 -0.046824947 0.08117445 0.01415434 0.10134173 0.06321211 0.085381806 -0.027882129
0.008163616 0.08881994 0.115058534 0.007816756 0.08546349 -0.048176408 0.0486361 0.11392086
0.14976649 0.07615857 0.12093994 0.059015866 0.14464934 0.069329165 -0.020319926 0.12815484
0.024721237 0.044864018 0.0009977502 0.008129633 0.09582776 0.07546101 0.09205042 0.1301714
0.07443661 0.06685665 -0.015083258 0.0221458 0.06857146 0.08362468 0.112366535 -0.038168963
0.12853152 0.012807951 0.20935385 0.07383189 0.09579927 0.13417153 0.05327279 0.043134518
-0.029532824 0.032528654 0.12103009 0.09559698 0.06007114 -0.020913726 0.049417116 -0.060844965
0.09589327 -0.034943502 0.053930122 0.0791354 0.01109594 0.064299904 -0.002543744 0.05965094
0.09564605 -0.0046726963 -0.022029532 -0.036013804 -0.040020213 0.07456406 0.06022742 0.02283526
0.025539735 -0.026260165 -0.016182762 0.14289603 -0.034571644 0.050286006 0.08689679 0.01461772
0.059814405 -0.054876555 0.11119038 0.042521935 0.08588514 -0.002289924 0.1341355 0.049365245
-0.034045566 -0.009743276 0.0138675 -0.043433145 0.009277067 0.04998095 0.02786022 0.060201026
0.09259896 -0.0131493565 0.059984885 0.05722161 0.024443496 -0.0033157151 -0.03128709 -0.042995777
0.071158536 0.0743163 0.074401006 0.091320015 0.049691346 0.029553078 -0.09441033 -0.027883204
0.0963845 0.020389138 0.0039167413 0.0028307391 -0.027178776 0.099969424 -0.032313384 0.012597085
-0.04740576 0.06352894 0.051968176 0.04281635 0.053551614 -0.065709606 0.0025265312 0.11217232
0.09811493 0.07706278 -0.062274348 0.075571924 0.0588199 -0.03345878 0.04737958 0.03504205
-0.04346282 0.036506094 -0.026655631 0.010291902 -0.012216885 0.08403 -0.055573754 0.024147378
-0.07966074 0.10822658 0.02217097 -0.009277782 0.056367382 -0.040344864 -0.017592205 0.046664074
-3.9219478e-05 0.08820938 0.01700669 0.10384705 0.010974512 0.09111808 -0.05544728 0.023308765
-0.03880721 -0.029854633 -0.052735537 -0.031967394 -0.03235773 0.08328219 -0.05315907 -0.018311497
-0.025510242 -0.00085691654 0.05221161 0.0059410464 0.053557973 0.046650425 -0.045134753 0.032388195
-0.039832048 0.097189955 0.026679318 0.08717942 0.08602584 0.060886916 0.09772019 0.04331095
0.051440004 0.04319123 -0.00814274 0.0792455 -0.0007818674 0.029396292 0.04044583 0.0006746198
0.07855653 0.08679836 0.09764922 -0.002073421 0.08291295 -0.039594274 0.020600641 -0.038932733
-0.051740758 -0.030736577 -0.08360302 0.072743624 0.075033896 0.037628222 0.014068493 0.011586072
0.01808772 0.06671701 0.052616294 -0.073308684 0.035806548 0.016638182 0.07436368 -0.059816055

bias_hh f4 [512]
00000000: f399 e13c e6c6 f2bc 88d8 963d 30be 10bd
00000010: 4de9 1a3c 35de 823d 3405 b33d 9d8f e53d
00000020: fbf8 353d 788e 58bc 9061 873c cbfa 9f3d
00000030: 01f0 a43d 9b3c 463e 66fc 94bc fb48 d63d
00000040: fbc4 513d f7e0 0f3e 4c95 923d 1034 05bc
00000050: 5a38 cc3d b4b0 e43a 5708 883d 5d6f fb3d
00000060: 470d 353e d67c 92bc d8ab 19bb be26 d33d
00000070: 9096 fa3c 7141 833d 74cc 0fbd e9e8 dc3d
00000080: 754d 103d 26da 4a3d 5ecd 023d 62d4 983d
00000090: b599 753d 6f5a e33d 318d 8b3d c167 093d
000000a0: 5fdc 013d 5ec8 e93d a22b af3d 3969 f23d
000000b0: 99ac d23d 9d2c b83d 5564 47bd f59d 9c3d
000000c0: adaa 013c 7168 de3d 871e ff3d 1fbc e1bc
000000d0: b027 c0bc c166 da3d 308b 2a3d d953 6f3d
000000e0: c675 923d b7ec 69bc 988e ae3c 355e 133d
000000f0: f3b0 d93d bdc0 8cbc 0375 cd3c 8eb5 113e
00000100: e354 6c3d 2af5 113c f3c6 803d b6bf 903d
00000110: fbf1 4fbd dc95 6f3c 4f28 653d a960 003e
00000120: 09e1 b63d a693 de3d e949 a93d 952e cc3d
00000130: 8adb be3c 4d77 1d3d 155a 2abd 24e3 e33d
00000140: 26bd aebc c286 453d 7938 963d 6cd4 0bbb
00000150: 4524 d8bc adc2 e63d 2526 00bd f62f 1a3d
00000160: b629 9b3d 404b 823b 8255 1e3c 3de3 e23d
00000170: 74f5 043e 27e8 cfbc 72b2 643d da9b 38bd
00000180: 31ae 6b3d 4bae 21bc 853b f33c dc8e d3bc
00000190: e0d1 243e 1bfd 163d ea2c 063e 3fc3 a93c
000001a0: 2e31 be3d 6598 37bd 2f2c febc 22e3 d03d
000001b0: 569d 343d c59d 933d 4351 0bbb 9ecb d33d
000001c0: c9c2 86bd 0081 1d3c 8dc2 1ebd b2e1 153e
000001d0: dd52 f73d 7247 31bc ad3d f63c 087b 073d
000001e0: 1375 3cbd 85f4 ce3d e36e 3cbd 9292 0f3e
000001f0: 65d0 2f3b 02d3 d43d 180b 943d 9874 643d
00000200: b517 a53d b3fc 9f3d 8cbf 883d e881 8f3c
00000210: 99de 2c3c 1cc1 9f3d 99cb 18bd 8483 05bb
00000220: 7ddc f63c da0a 023e de09 09bd 5020 aa3d
00000230: 0438 9bbc da5f ef3c 5597 ce3b 8949 46bd
00000240: 0988 28bc fa44 743b 1f01 e2bc b918 733d
00000250: c10d 903d 1b2d 0c3d 6d0e 63bd a690 703d
00000260: 0dd5 96bd fee3 033d 5123 96bd 23d6 a93c
00000270: b90f 433d 5dcc 153d 269f ae3d 180f 8d3d
00000280: d3a6 d43c 7880 813d f0f7 c53d a4a1 a13d
00000290: 0987 86bd 934c 5fbb ba28 14bc b126 07bd
000002a0: 99d8 de3d d74a 97bd b29f 243c 082a 16bc
000002b0: 83bd cb3d b379 5dbd f109 b0ba adaf edbb
000002c0: e6da 443d de2b 963d 4e68 24bc e17f c03d
000002d0: b595 aa3d 3272 b73d 7618 703d 3274 9e3d
000002e0: 823f 9d3d e23c 58bd cc07 4b3d f35c 633d
000002f0: 9069 27bd 3a59 bfbb 426c 853d 3b8d e8bc
00000300: c849 33bd cf8f 7b3d f5ab 673d 9f24 6dbc
00000310: 1b71 d13d ca79 d1bb c65b 44bc 3e0c 4fbd
00000320: 6f31 45bd 3da2 c9bb 3e31 32bd 29cb bdbc
00000330: 461a 743d a673 943d 82ef 85bd 1590 6fbd
00000340: 842c 38bd f116 8dbb b17d 95bd 0e01 193c
00000350: 059c 1b3d d6dc 543d 7659 323d ae61 14bd
00000360: 1822 9e3d 506b 6abd dff0 b33d 7f9d 76bd
00000370: 3191 153d 5bcf 6e3d ed0a d03c 3f9e 9cbd
00000380: 6f5c c1bb eec6 6e3d cdd2 483d d459 5bbd
00000390: 7205 433d 44af 88bc f9d6 bc3d ad5c 153d
000003a0: 4f33 96b9 4074 a6ba da29 b93d 4d90 4fbd
000003b0: bcad 8e3d 53dd a4bc 17b5 af3c b206 2f3c
000003c0: e41b 743d 4996 93bd 3526 14bd 9c95 073d
000003d0: 7975 273d 0ec8 9c3d 0317 bb3d 21b8 9fbc
000003e0: a015 093c c080 79bd 23c4 c23d d579 9a3d
000003f0: d52b 39bd f11f 50bd d6a6 653d 9e39 333d
0.027539229 -0.029635858 0.07365519 -0.035337627 0.009455037 0.06390039 0.08741227 0.11209033
0.0444269 -0.013217561 0.016526014 0.07811507 0.080535896 0.19359057 -0.01818676 0.10463139
0.051213246 0.14050661 0.07157382 -0.008130088 0.09971686 0.0017447681 0.06642216 0.122771
0.17680846 -0.017881792 -0.0023448374 0.10310124 0.030589372 0.06408966 -0.03510709 0.107866116
0.03523012 0.04952445 0.031934135 0.07462384 0.05996104 0.11101233 0.068140395 0.033546213
0.031704303 0.1141517 0.08553244 0.11836476 0.10286827 0.08992884 -0.04867967 0.076473154
0.007914227 0.10859764 0.124569945 -0.027555523 -0.023456424 0.1066413 0.041636646 0.058429573
0.0715137 -0.014277629 0.021308228 0.035978515 0.106294535 -0.017181749 0.02508021 0.14229414
0.05769814 0.008908549 0.062879466 0.07067816 -0.05076788 0.014623132 0.055946644 0.12536873
0.08929641 0.108680055 0.0826605 0.09969822 0.023298044 0.038443852 -0.041589815 0.11127308
-0.021330427 0.04822422 0.0733499 -0.002133633 -0.026384482 0.112676 -0.031286377 0.037643395
0.07576315 0.0039762557 0.009663941 0.110784985 0.12984258 -0.025379254 0.05583424 -0.045070507
0.05753917 -0.009868215 0.029691467 -0.025824957 0.16095686 0.036862474 0.13103071 0.020722983
0.09286724 -0.04482307 -0.031026928 0.10199572 0.04409536 0.072078265 -0.0021258153 0.10341571
-0.06580121 0.0096132755 -0.038759757 0.14636877 0.12076352 -0.010820257 0.030058706 0.033076316
-0.04601009 0.10105232 -0.046004187 0.14020756 0.0026827094 0.10391809 0.072286785 0.055775255
0.080611624 0.078118704 0.0667716 0.017517999 0.010551118 0.078005046 -0.03730354 -0.002037258
0.030134434 0.12699452 -0.033456676 0.08306944 -0.018947609 0.02922051 0.0063046613 -0.048409972
-0.01028634 0.0037272559 -0.027588425 0.05934975 0.07033873 0.034222703 -0.05543368 0.058731697
-0.07364855 0.032199852 -0.07330955 0.020731991 0.047622416 0.03657185 0.08526449 0.068876445
0.025958454 0.063233316 0.09666431 0.07892159 -0.06568725 -0.0034072741 -0.009042913 -0.032995883
0.108811565 -0.073873214 0.01004784 -0.0091652945 0.09948256 -0.05407114 -0.0013430697 -0.007253608
0.04806032 0.07332586 -0.010034634 0.09399391 0.083293356 0.08957328 0.058617078 0.07737006
0.07678129 -0.052792437 0.049567983 0.055508565 -0.040872157 -0.005839494 0.06514789 -0.028387656
-0.043771535 0.061416443 0.056560475 -0.014474063 0.10226651 -0.006392692 -0.011984771 -0.050548784
-0.048142847 -0.0061533735 -0.043503992 -0.023168163 0.05959537 0.07248621 -0.06539823 -0.058487017
-0.04496433 -0.0043057133 -0.07299364 0.00933863 0.03799059 0.051968418 0.043542348 -0.036225967
0.077213466 -0.057231247 0.08786177 -0.060208794 0.03651542 0.05830322 0.025395835 -0.076473705
-0.0059009115 0.058295183 0.04902916 -0.053552464 0.047612615 -0.016685136 0.0922069 0.036465336
-0.00028648457 -0.001269944 0.09041186 -0.050674725 0.06966731 -0.020125067 0.021448655 0.010682749
0.05959691 -0.07206399 -0.03616925 0.033101663 0.040883515 0.07655345 0.091352485 -0.01949698
0.008366972 -0.0609138 0.09510066 0.07542769 -0.045207817 -0.05081171 0.05606731 0.04375612

weight_ih f4 [512, 128]
00000000: d9fb 94bc 6d42 4b3d aafb 823d 7fb4 98bc
00000010: 324e 64bd 7e5b 93bd c52a e8bd 816e 443d
00000020: ba88 81bc b651 0f3c aa33 523d b1af aa3d
00000030: ab99 e3bc 9ca2 963d 5eee 1c3e 9507 823d
00000040: e510 fb3c 9390 dcbc 780f dd3d 776f ba3d
00000050: ce1a 96bd b716 8f3d 4356 953d c29f 7c3c
00000060: 348c 70bd f8f8 fb3d 4bdb 883d b0f7 903c
00000070: 8111 833d 0a77 a4bc 261c 51bd 671c c73d
00000080: 8fbe e1bc b7f7 ffbd e8c4 c83a de3a 3d3c
00000090: b98f 923b 8cc3 22bc c20d 74bd 9274 5d3d
000000a0: 0304 bdbc c639 e8bd 6e91 403d 7b8f dc3c
000000b0: b8ea a639 609f 0d3d b61a 953c e0c7 aebd
000000c0: 2392 a7bc facc 9d3d f663 cabd 5738 253d
000000d0: cc61 f6bd 6fc7 3ebd c2b6 4bbd 8aa7 023e
000000e0: 56c3 bd3d fb6d 733c f543 993b 0aa3 d7bd
000000f0: d54f 8dbd 2788 0bbe f41e 1c3d fc23 d43c
00000100: aad2 3cbd f2f0 fbbc 96f2 34bd 6a21 07bd
00000110: 23a3 99bd c2eb a53d fd76 78bc a443 81bc
00000120: 797a c43d 83ea 433d 5057 da3d ef87 dbbc
00000130: 1523 1bbd 334b 02be faad 7c3d ce8b cbbd
00000140: a046 09bc 9121 4abc 0a31 15bd 9251 9fbd
00000150: 72d1 723d 7c54 843d b627 aa3c 34f9 f03c
00000160: f975 63bd 239b 7dbd 69ee 51bc 49bd 923d
00000170: ca21 48bd ee4e de3c 44b8 b7bc 427c 853d
00000180: 94df 78bd 9101 9abd 70b4 05bd 708d 8d3c
00000190: 8c79 8c3b 1c7a b9bc bd92 b43d 6ed1 283c
000001a0: 8b1e 91bd 1a57 6abd f2fc 26bd 895a 293c
000001b0: 5d3f a8bc 74d2 5e3d e014 37bd 848d 233d
000001c0: 0af1 8c3d dbdf b23c 33da 9c3d f877 00bd
000001d0: 9def 0abd fe90 53bb ef16 493d b515 90bd
000001e0: 18a9 c6bc fbb1 8b3d 5c47 60bd cbb5 08bd
000001f0: 4085 ddbd 6984 ff3d 4e99 ce3d a4a8 2f3d
00000200: 8e9f 863d 0bd4 99bc d538 973d bd9a ae3d
00000210: 6728 383d 1cb0 1b3c bd91 7b3d 2c38 853c
00000220: bbcf fb3c 198d c3bc 5290 1a3d 8965 f33c
00000230: fcac 8a3d b0d7 b8bd 2595 80bd 1da1 e23c
00000240: 10bf bcbd e125 8bbd 63cc 063d bbcb dfbc
00000250: ef8f 9bbc 9cee 2cbc e3f8 443d 134f 523d
00000260: 1b33 6ebd 39db 9cbd a5cd f6bc 6c2c abbd
00000270: e1ea 64bd 0c7c 7f3d 9159 443d 48c6 8a3d
00000280: bac8 823d e435 793c 766c 28bd 0d31 16bc
00000290: 1e73 933d 6968 9e3d 3c5e 9f3d a8a1 063d
000002a0: c601 06bd 6d2b 1bbd ea70 e63d 7b72 39bd
000002b0: b5fd 463d b61e a0bd 7618 8e3d 4f78 fb3c
000002c0: 524b ce3d 4a46 aebd 9d00 d43b f8da 99bc
000002d0: 2405 cf3d 8881 1dbd 53a9 1cbd 0e2c 9abd
000002e0: e587 b5bd 2af6 afbd 65a0 3b3c 178d 93bd
000002f0: e59d 653d 888b 703d 4b03 2c3d b53a 283d
00000300: c4ac 97bd a4f4 973d e1c9 213d 6055 c0bb
00000310: 6843 573d 1223 553d 8b7b 5dbb 95e6 4dbd
00000320: 407b 9d3d 6361 b7bd 39a1 9c3d cb50 a43d
00000330: 2278 a7bd dadb c0ba 71a6 c0bd 91ff c83c
00000340: 3e7a df3c b446 d73d 85db 58bc 127c 893c
00000350: fc07 2b3d 3066 3cbd c906 14bd a3a0 f63d
00000360: d709 a33d fdd8 15bb 907a 0cbc 344d 9ebd
00000370: 9ff1 a13c 410f c8bc b8e2 963d 4803 cf3d
00000380: 8c2f 91bd a6be 65bc e9d5 5bbd f97b fbbc
00000390: 379e 543d c8bf 08bd 3db3 4f3d f1ea e5bd
000003a0: f1d0 c0bd f79c 063d 208c ce3d 6197 473d
000003b0: 2e92 aebd 5ef6 8abc 35b4 833d dd20 f93d
000003c0: 2f15 6a3d c77c 4f3b 862e b0bc 454c 1d3d
000003d0: 9f2e 823c 2f5d ce3c 0d34 213d 9f4a 6d3c
000003e0: 9eaf 763d d2f3 5a3d 524c 273d 1135 a3bc
000003f0: 0517 57bc e0a8 ea3a f542 11bc d078 1e3d
-0.018186497 0.049623895 0.06395657 -0.018640755 -0.055738635 -0.07195185 -0.11336283 0.047956947
-0.015812267 0.008747509 0.051318802 0.08334292 -0.027783236 0.07355234 0.15325305 0.063491024
0.030647704 -0.026924407 0.10793966 0.091032915 -0.07329331 0.069867544 0.07291844 0.015418949
-0.058727458 0.123033464 0.06682452 0.017696232 0.06399823 -0.020076293 -0.051052235 0.09722214
-0.027556686 -0.1249842 0.0015317472 0.01154968 0.0044726995 -0.009934317 -0.059583433 0.05406625
-0.023073202 -0.113391444 0.047013693 0.026923886 0.00031836866 0.03457582 0.018201213 -0.08534217
-0.020455426 0.07705112 -0.09882347 0.040336933 -0.12030372 -0.046576913 -0.04973484 0.12759224
0.09265773 0.014857764 0.0046772906 -0.10529144 -0.068999924 -0.13626157 0.038115457 0.025896065
-0.046099342 -0.03075454 -0.04417666 -0.03299085 -0.07501819 0.08101608 -0.015165088 -0.015779324
0.09593672 0.04783107 0.10661185 -0.026798217 -0.037875254 -0.12723999 0.061689354 -0.09938775
-0.008378655 -0.012337104 -0.03642372 -0.0777923 0.059281774 0.064614266 0.020770889 0.029415704
-0.05553243 -0.061915528 -0.012813189 0.071650095 -0.04886035 0.027137246 -0.022426732 0.06517841
-0.060760096 -0.0751983 -0.03264278 0.017279357 0.0042869505 -0.022641234 0.088170506 0.010303838
-0.07085904 -0.057211973 -0.04076857 0.010336527 -0.020538026 0.054399922 -0.044697642 0.03992988
0.06881912 0.021835258 0.07658806 -0.03136441 -0.03391992 -0.0032282467 0.049094137 -0.0703539
-0.024250552 0.068210565 -0.054755554 -0.033376496 -0.10816431 0.12476427 0.10087834 0.042885438
0.065734014 -0.018777868 0.07383887 0.08525608 0.044960406 0.009502437 0.061418284 0.016262136
0.030738702 -0.023870992 0.03773529 0.029711502 0.067712754 -0.09025514 -0.06278447 0.027664715
-0.0921613 -0.06794334 0.032909762 -0.027318826 -0.018989531 -0.010554936 0.04808892 0.051344942
-0.058154207 -0.07659001 -0.030127356 -0.08358082 -0.05588806 0.06237416 0.04793698 0.067761004
0.06385942 0.015210602 -0.04111906 -0.009166968 0.07199691 0.077347584 0.07781646 0.03286901
-0.032716535 -0.03788321 0.112520054 -0.045275193 0.048581798 -0.07818358 0.06938259 0.030697016
0.1007296 -0.085095 0.0064697997 -0.01878117 0.10108402 -0.03845361 -0.038247418 -0.07527934
-0.088638104 -0.08591874 0.011451815 -0.07204645 0.056058783 0.058726817 0.041995328 0.041071612
-0.07405999 0.07419708 0.039499167 -0.0058695525 0.052554518 0.0520354 -0.0033795561 -0.05026873
0.07689524 -0.08954122 0.07647938 0.080232225 -0.081772104 -0.0014713958 -0.09406746 0.024535926
0.02727997 0.105115324 -0.013235931 0.016782794 0.04175566 -0.04599589 -0.036139283 0.12042358
0.07960861 -0.002286493 -0.008574143 -0.07729569 0.019768534 -0.024421336 0.07367462 0.10108048
-0.07089147 -0.014022505 -0.053670797 -0.030698763 0.051908698 -0.03338602 0.050708044 -0.11226452
-0.094148524 0.032864537 0.100853205 0.04872835 -0.08523975 -0.01696318 0.06430856 0.12164471
0.05714911 0.0031660066 -0.02150656 0.038402814 0.015891371 0.025190918 0.03935628 0.014483123
0.060226075 0.05345518 0.04084427 -0.019922765 -0.013128047 0.0017903112 -0.008866061 0.038689435

weight_hh f4 [512, 128]
00000000: cbb7 8cbd e87b d4bd 554c 5ebd c3db a33d
00000010: e5f9 443d 92c6 d83c 33bd 283d 21ff bfbd
00000020: 96b6 85bd 567c 14bd 565e 243d c681 6c3d
00000030: 3cce b93d 3141 ba3a 1295 53bd 0f13 15bc
00000040: b23a 233d bd6b 74bb 8a37 203c 55d4 a93b
00000050: 62ce da3c 53f5 d0bd 0b60 b83d e1e3 a4bd
00000060: 42c0 9c3c 7d39 623d ea87 323d 57d9 8cbd
00000070: 367d 9d39 74bd 21bd 24b5 acbd fb03 abbd
00000080: d134 bcbd fb00 94bc 2143 713d f893 233d
00000090: be9b a53d 0a4a b23c 367b 333d baeb 60bd
000000a0: 3e6e 80bd cee3 7bbd 7856 5e3d 6c17 cdbc
000000b0: 5409 473d 7f57 c8bd 051c d33d 0c04 8abd
000000c0: 1dde 67bc 566d 8b3c 3b70 bbbd 3c32 243d
000000d0: 169f de3c b264 583d 829d ea3c 49af 0d3d
000000e0: bc92 51bd 101e 49bb 6380 f63b 9915 4dbc
000000f0: fbcb a53d fd41 f23d 98a2 cabd 551b c7bd
00000100: b9be 60bd 8513 9a3c ea16 913d 5a0c 243c
00000110: a506 45bd e203 5bbd d5ff 683d 3585 243d
00000120: bfc4 f13d 2fc5 85bc 771e 19bc 41a2 9dbc
00000130: 9b77 d33b 2297 b9bd b10a f4ba 6562 9a3c
00000140: 9518 e4bd cb1e 9ebd d69c 6e3d 85e6 0ebd
00000150: c496 cd3c e2b2 ceba 6ae6 8d3c 04af 84bd
00000160: 6a42 6fbd 72ad 4dbd 1dfd 31bc 441d 733b
00000170: ebae 63bd 0b73 003c 7309 9e3c 1b30 ce3c
00000180: 7879 733c dbf0 a33d 45ae aebd 8e7b 8dbd
00000190: f4ae cdbd 3817 f3bd 527b 71bd dc9e f03c
000001a0: ee58 42bc 4908 61bd 31e9 bfbc f458 163d
000001b0: de34 5fbd 7218 d83d b05e 47bd 5246 b5bc
000001c0: 7508 c13d 0cbf 8a3c 33b8 51bb f8fd a33d
000001d0: 4fa4 6f3d 4657 ec3c 1970 3fbd 9cfa 223d
000001e0: 2d54 bb3c 29bb 73bc 426c a5bc 5783 f73c
000001f0: f007 ecbd ccd2 97bc b171 df3c cc2c e53c
00000200: 1237 4dbc 7551 1b3d 8a66 6dbc 27ce 68bd
00000210: 6974 54bc 938f 0ebd 5f9d f83d 7b2d fc3b
00000220: d27c 88bd 8178 643a e524 58bd f526 9c3d
00000230: 0df9 80bd 30c1 5d3d 3670 1bbd 38b9 8d3d
00000240: 5ea6 0c3d 88bf a13d 2804 d73d 00cd 353c
00000250: 8095 6bbc e5c1 623d 7174 0f3d 7b88 483c
00000260: 5bf1 333d 21e6 40bb 66ee 4b3c da37 32bc
00000270: 8d70 f1bb 6f8e f7bb 5c20 703c f5e9 d1bc
00000280: 41e4 39bd 7600 0a3d 69f4 89bb a091 233d
00000290: b286 8b3d dabb 723d 2c73 7e3d 54a9 b13d
000002a0: c1e2 fcbc 484d e93c 1030 d43c b91c 823d
000002b0: c42f dd3d 1e99 1fbd d185 553c 61c1 eb3c
000002c0: c29e 03bc 55cf a4bd f176 43bd 3b11 983d
000002d0: bd4e 073d 30cf 60bd 95cd 2bbd 947b ca3b
000002e0: 0bc3 b43c f342 acbd 7d40 b93d 523b 9a3d
000002f0: c052 09bd d001 c63c 099a 29bc bc34 273d
00000300: fb06 8b3d 021f e0bd 800c 7bba 8715 a23d
00000310: 9d6e e43c 34a1 1ebd 1207 57bc fbab 083d
00000320: b98d fa3b 1861 09bd efa6 1c3d e464 9f3d
00000330: 5195 d23d 33d6 a63c 3f32 5d3d 2605 b2bd
00000340: f282 edbc b0c3 bfbd 7b6d 4a3c 91c1 b8bd
00000350: 576a 44bd a6ce d23d a315 bc3d 7c88 86bc
00000360: 3c98 95bd 31d4 8fbd 89dd 953d 07aa 3c3d
00000370: 4521 e43b fb4b 7bbd b8ca 1c3c 8230 07bd
00000380: 9542 d0bd 77f7 c4bc b734 7fbc 0608 80bc
00000390: bfb4 193c a783 0f3d 6029 6a3d 2f35 98bd
000003a0: c97f 1b3d 64ca 89bd b80f d2bd dcca 56bd
000003b0: 2df6 6f3d d965 863d eb38 af3d 06ac 05bd
000003c0: 1e41 34bd 12bc cfbc d054 d2bc d7bd 1d3d
000003d0: f93a babc 8895 81bd 3954 e03c 9814 a8bd
000003e0: f1a0 0939 1985 d7bd 8cba 583d e907 a03d
000003f0: 0cfd 47bb f3a5 a13d 43d4 bebc 09e9 25bd
-0.06870993 -0.10375196 -0.054272015 0.080009006 0.04808988 0.026461873 0.04119606 -0.09374834
-0.06528966 -0.03625139 0.04012903 0.05774095 0.09072539 0.0014210102 -0.051655836 -0.009098782
0.039850898 -0.0037295662 0.009778867 0.0051827827 0.02670974 -0.10203042 0.09002694 -0.08051277
0.019134644 0.055230606 0.04358665 -0.06877392 0.00030038663 -0.039487317 -0.08432987 -0.083503686
-0.091897614 -0.018066874 0.05890191 0.039936036 0.08086346 0.02176382 0.043818675 -0.054912306
-0.06271027 -0.06149655 0.05428168 -0.025035582 0.04859288 -0.097823136 0.10308079 -0.06739053
-0.014152077 0.017019909 -0.09152266 0.04008697 0.027175467 0.052830406 0.028639559 0.034590993
-0.051165327 -0.0030688085 0.007522629 -0.012517356 0.08095547 0.118289925 -0.098942935 -0.0972201
-0.054869387 0.018808136 0.07084449 0.0100127105 -0.04810204 -0.0534705 0.056884605 0.0401661
0.118051045 -0.016329376 -0.009345642 -0.019242408 0.006453467 -0.090620294 -0.0018618909 0.018845746
-0.11137501 -0.07720717 0.05825504 -0.03488781 0.025096305 -0.0015769864 0.017321784 -0.06478694
-0.058412947 -0.05021424 -0.01086357 0.00370963 -0.055586737 0.007839928 0.019291615 0.025169423
0.014860503 0.08004924 -0.08529333 -0.06908332 -0.10043135 -0.11869663 -0.058955498 0.029372625
-0.011862023 -0.054939542 -0.023426624 0.036705926 -0.054493777 0.105515376 -0.048674285 -0.022128258
0.09425441 0.016936801 -0.003200066 0.08007425 0.058506306 0.028850209 -0.046737764 0.03978978
0.022867287 -0.014876165 -0.020193223 0.030213995 -0.115249515 -0.018533133 0.027275892 0.027975462
-0.012525337 0.03791948 -0.014489779 -0.056837227 -0.0129672075 -0.03480489 0.12139391 0.0076958514
-0.066644326 0.0008715466 -0.05276956 0.07624618 -0.06297503 0.054139316 -0.03794881 0.06920093
0.034338348 0.0789786 0.104988396 0.011096239 -0.014378905 0.055360693 0.035023157 0.012239571
0.043931346 -0.0029434043 0.012446975 -0.010877574 -0.0073681534 -0.007554821 0.014656153 -0.025624255
-0.045383696 0.033691846 -0.004210044 0.0399338 0.068128005 0.05926118 0.062121555 0.08674875
-0.030869843 0.028479233 0.025901824 0.06353135 0.10800126 -0.038964383 0.013032393 0.028778734
-0.008033456 -0.08047358 -0.047720853 0.074251615 0.033034075 -0.05488509 -0.041944105 0.0061792824
0.02206566 -0.08411207 0.09045503 0.07530846 -0.033526182 0.024170786 -0.010351666 0.040821776
0.06788441 -0.10943414 -0.0009576753 0.07914262 0.027884776 -0.038727954 -0.013124244 0.03336714
0.007646289 -0.03353986 0.038245138 0.07782915 0.10282386 0.02036581 0.054002997 -0.08692388
-0.028993104 -0.09363496 0.012355204 -0.09021295 -0.047952976 0.10293321 0.091838144 -0.016422503
-0.07304427 -0.07022894 0.07317645 0.04606059 0.006961974 -0.061351757 0.009569816 -0.033005245
-0.101689495 -0.024043782 -0.015576533 -0.015628826 0.009381472 0.035037663 0.057168365 -0.07432019
0.037963662 -0.06728056 -0.10256904 -0.052439556 0.05858438 0.06562395 0.08555778 -0.032634757
-0.044007413 -0.025358234 -0.025675207 0.038511124 -0.022733198 -0.06327349 0.02738391 -0.08207053
0.00013125293 -0.10523433 0.05291228 0.07814009 -0.0030515818 0.078929804 -0.023294574 -0.040505443

bias_ih f4 [512]
00000000: f859 033e c131 233d 01a1 1d3e 2838 803d
00000010: 1f6d cc3d 683b 863d 0e56 b53d 45dc 133c
00000020: 3ebe d83d 8e75 9f3d 9f23 c43d e489 bc3d
00000030: 6587 babc 44db 263d 3944 65bc e201 c53d
00000040: 1a5b 62bd 1c70 a73d 4f12 84bc 835d c63d
00000050: f0a6 6d3d 09df 973d d5cd 143d 2e81 8ebd
00000060: a4a3 a83d d428 e23d afda 843d 767b 853d
00000070: ddf0 393c 2a3a 5b3d 3551 733d 8654 0c3e
00000080: 0bcd 363d 6ad3 aa3d 73c9 d0bc f0c6 173e
00000090: 3509 8c3c 4fab df3d fbbc 883c 680d 083e
000000a0: d1eb 4d3d 6824 06bc 9f1b a53d f24a e33d
000000b0: 72b5 823c 8737 e33c 2ae9 eb3d ca65 7d3d
000000c0: d441 bdbc 4575 3e3d 02d4 263b f970 11bd
000000d0: 0d43 a3bc 6447 083e 10d6 3fbd 0ef0 da3c
000000e0: 8018 11bc 972a 35bd 48ca 473d b131 213e
000000f0: 927c a73d 7c90 d53c 1192 d93d bed6 d73d
00000100: 7fa7 e93d a567 813d 39cf 31bd da0a a93d
00000110: df17 4f3d 5a7f df3c fd58 c03d 25cd 8e3d
00000120: b2d2 633c be55 123d c3ca b73c a156 ec3c
00000130: df18 673b 4c27 e9bc f785 c73d dbf7 0f3d
00000140: c0a3 a83d adc7 e63d dd3c 2abc 6820 bd3c
00000150: 19d7 363e cd99 073e ef39 263e b3b0 313d
00000160: 01b4 94bc 3876 7c3b adca 83bc 922a f93c
00000170: 26bc 923b 9840 c73d 26fc 283c 516d d93d
00000180: f6fd a0bc 2bc4 073d 4cba 853c 8894 333d
00000190: 523b 533d 5c2d 083e 78fe dc3d 727d 9c3d
000001a0: f986 cf3d a098 343d f299 a93d 7a2a 233e
000001b0: f9fc a33d f650 d03d d451 023e 085f f63d
000001c0: 0242 073e 7c03 a33d 4926 0d3e 5e51 2a3d
000001d0: bcc6 163e eb3d bc3c bea3 d23c a378 adbc
000001e0: 92d8 aa3d 6efa cc3d 4475 123e 5f0e 153e
000001f0: 7758 f83d 927f f73c 4b47 083d 18a8 a83d
00000200: 6712 95ba 84eb afbd 1f99 ba3c 59e0 923d
00000210: 6898 58bd 126b 1fbc 8907 92bd e32e c4bc
00000220: 9fa3 d93c 8efd acbb 74ec 89bd 3b4d 63bd
00000230: 789f fe3b c0e6 12bd 6b51 9c3d d200 033d
00000240: baca 35bd 6501 90bd f0c3 1f3d 5008 f3bc
00000250: 60aa 803c 7d5e ba3c 6ad5 22bc b555 953d
00000260: 03ab a53a 9bd5 37bd bfb3 683d 3fd0 bebd
00000270: 429c 363c e96b 75bd d13b 4f3d f30f 733d
00000280: 2b25 c03d 6185 88bd 7b0d 353a 9184 693a
00000290: 0938 cdbc 3717 bb3d 2a6c 99bd 86bd 2a3d
000002a0: 58a2 423d bebb c7bd aae3 a93d 0f99 5ebd
000002b0: b6be a6bd a0cd 64bd 9dfe 12bd 54c2 3e3c
000002c0: c114 edbc 1dab 8ebd e4ba 89bd 6461 bebd
000002d0: 08fa 9d3d 3c5e 0e3d 0a6f 87bc 7b14 093b
000002e0: e629 23bd 7105 bf3d a0da 883d ee03 1f3d
000002f0: 3742 8ebb 04b1 b93b e328 233d 1c0f b0bc
00000300: 47e2 513d 717d ac3d 2392 8dbd 1b6f 563a
00000310: 92d8 8abd af87 9dbb c370 ce3d 1df5 4c3d
00000320: 53af 69bc 68e5 0fbd 2919 46bd d5f9 0abd
00000330: 67e8 53bd 707d b1bd deb9 fc3b 832b a1bc
00000340: df74 f73c a0d7 9abd 996f 543b d78d 32bd
00000350: 260b 9cbc 53f8 253d 3c19 9b3c 2980 8ebd
00000360: cfa7 87bb 8bfd aebd b629 a53d 3411 b9bb
00000370: 56ed 963d 9f2f 36bd f09f 8d3d df45 bd3d
00000380: cb26 cb3d 0d1c 3b3d db04 683d db94 8dbc
00000390: b219 843d ebbe dcbc 4ada 90bd e8f3 c2bd
000003a0: 811c cabd ee88 22bc 86a1 b1bc b27a 183d
000003b0: 85c8 5c3d 9f0b 383d 1f50 4b3d 983e 81bd
000003c0: 6fa9 923d f3f9 39bd f6f3 a63d ce68 813d
000003d0: d4fb 813c 5f95 213d 5cca b03c b6bc 7dbd
000003e0: 21c3 2abd 8a6c d33c 0f75 44bc 74af b93b
000003f0: 0e5f 6bbd e7b1 68bd da00 823d 1968 9fbd
0.12827289 0.03984237 0.1539345 0.06260711 0.09981751 0.065542996 0.08854304 0.009024684
0.10583161 0.07786094 0.09577107 0.09205988 -0.02276964 0.04073645 -0.013993316 0.096195
-0.055262662 0.0817568 -0.016122011 0.09685805 0.058020532 0.074155875 0.03632911 -0.06958233
0.08234337 0.110429436 0.06487023 0.06517689 0.01134893 0.053522266 0.059403617 0.13704118
0.044629138 0.08341105 -0.025486683 0.14821982 0.017094234 0.109213464 0.016691675 0.13286364
0.05027372 -0.008187391 0.08061909 0.11098279 0.01595566 0.027736438 0.11519082 0.06186465
-0.023102678 0.046498556 0.0025455956 -0.03550813 -0.019929433 0.13308483 -0.046835005 0.026725795
-0.008855939 -0.04423007 0.048776895 0.15741612 0.08178057 0.026069872 0.10623563 0.10539006
0.114089005 0.06318597 -0.043410514 0.08254023 0.050559875 0.027282406 0.09391973 0.06972722
0.013905214 0.0357263 0.022435552 0.028849902 0.0035262627 -0.028461121 0.09742349 0.035148483
0.08234358 0.11268554 -0.0103904875 0.023086742 0.1785549 0.13242264 0.16233037 0.043381404
-0.018152239 0.0038522612 -0.016087854 0.030415807 0.0044779954 0.09729117 0.010314023 0.106165536
-0.019652348 0.033146065 0.016324185 0.043842822 0.051570244 0.13298553 0.107907236 0.07641114
0.10133166 0.044090867 0.08281316 0.15934172 0.08007235 0.10171692 0.12726527 0.120298445
0.13208774 0.07959649 0.13784136 0.041581504 0.14724249 0.022978744 0.025712844 -0.021175688
0.08342089 0.10008703 0.14302546 0.14556263 0.12126248 0.030212197 0.033271115 0.08235186
-0.0011373282 -0.08589843 0.022778092 0.07171697 -0.05287972 -0.009730117 -0.071303435 -0.023948139
0.026567278 -0.0052792495 -0.06734553 -0.055493575 0.007770475 -0.03586459 0.07632717 0.031983204
-0.04438279 -0.07031516 0.03900522 -0.02966705 0.015706241 0.022750134 -0.009938577 0.07291738
0.0012639466 -0.044881444 0.056812044 -0.093170635 0.011145653 -0.059917364 0.050594155 0.059341382
0.09382089 -0.06666065 0.0006906611 0.00089079986 -0.025051134 0.09135287 -0.07491334 0.04168465
0.047518104 -0.09752606 0.082953766 -0.054345187 -0.08141844 -0.05586016 -0.03588735 0.011643011
-0.02894056 -0.06966231 -0.067251 -0.092959195 0.07713705 0.034757838 -0.01653244 0.0020916748
-0.03983488 0.0932721 0.066823244 0.038822107 -0.0043413895 0.005666854 0.039833914 -0.02149158
0.051241186 0.084223635 -0.06912639 0.0008180008 -0.06779589 -0.0048074345 0.10080101 0.050038446
-0.014262992 -0.03513089 -0.04836384 -0.033929665 -0.051735308 -0.086665034 0.007712587 -0.019674068
0.030207096 -0.075606585 0.003241515 -0.0435923 -0.019048285 0.040520024 0.018932931 -0.06958038
-0.0041398774 -0.08544453 0.08064596 -0.0056478027 0.07369487 -0.04447901 0.06915271 0.092418425
0.099195085 0.04568105 0.056645256 -0.017282894 0.064502135 -0.026946506 -0.07072885 -0.09519178
-0.09868718 -0.009920342 -0.021683466 0.037226386 0.053902168 0.044932958 0.049636956 -0.06310767
0.07161223 -0.045404386 0.081520006 0.06318818 0.015867151 0.039449092 0.021580867 -0.061947547
-0.041689996 0.025808591 -0.0119908 0.0056666676 -0.057463698 -0.056810286 0.06347819 -0.07783527
